backend/data/model_data/model_old.pt (torch, 741705 bytes, 10 tensors)

id_embed.weight f4 [10566, 8]
0	0x3f5cf35b	0.8630883
1	0x3ef03bb4	0.4692055
2	0x3fbb870a	1.4650586
3	0xbf18c389	-0.5967336
4	0x3eca7136	0.39539498
5	0xbe5af8a8	-0.21383917
6	0x3f3d7092	0.73999894
7	0x3f2233cf	0.63360304
8	0x3f6dc06f	0.92871755
9	0xbe8a6e0e	-0.2703709
10	0x3fe25809	1.7683116
11	0xbee32b3b	-0.4436892
12	0x3e178dcc	0.14800185
13	0x3ec1ffca	0.37890464
14	0x3ea88a64	0.32918084
15	0x3f5df673	0.86704177
16	0x3ad14590	0.0015966166
17	0xbe897a4a	-0.26851112
18	0xbe37de48	-0.17955887
19	0x3efd5069	0.4947541
20	0x3f29a047	0.6626019
21	0x3ddcff48	0.107908785
22	0x3e97ffbf	0.29687306
23	0xbe7d5d3f	-0.24742602
24	0x3eb05a06	0.34443682
25	0x3dcc7ead	0.09985099
26	0x3f0b9283	0.54520434
27	0xbe3d383f	-0.18478487
28	0xbe79c81d	-0.24392743
29	0x3dcf8da3	0.10134437
30	0xbe380e40	-0.17974186
31	0xbf269ff0	-0.65087795
32	0x3dccacd2	0.099939
33	0x3f7efd81	0.99605566
34	0x3f8d9605	1.1061407
35	0x3f817ef8	1.0116873
36	0x3f278c57	0.65448517
37	0xbf34989b	-0.7054536
38	0xbea04a5e	-0.31306738
39	0x3eb965cb	0.36210474
40	0x3f067b02	0.52531445
41	0x3f99878b	1.199449
42	0x3ef48f14	0.4776541
43	0x3e722104	0.23645407
44	0xbef6b05b	-0.48181424
45	0xbed9bb30	-0.42525625
46	0x3ea35d57	0.3190715
47	0xbe819c8d	-0.2531475
48	0xbe9d5876	-0.30731553
49	0x3f26b89d	0.6512545
50	0xbf280ee8	-0.65647745
51	0x3edebba9	0.43502548
52	0xbea9c3cf	-0.33157203
53	0x3db7e6fc	0.08979604
54	0x3e422247	0.18958388
55	0xbe2a154b	-0.16609685
56	0x3fdc2c6d	1.7201058
57	0xbdc2c8da	-0.09510966
58	0x3f3f94f6	0.7483667
59	0xbe42ad38	-0.1901139
60	0xbe3544b3	-0.17701988
61	0xbedeba76	-0.43501633
62	0x3f1c401e	0.61035335
63	0x3f5980b3	0.84962004
64	0x3fbd3526	1.4781845
65	0x3f5a82cf	0.8535585
66	0x3f6f0362	0.93364537
67	0x3d25094a	0.040292062
68	0x3eed6939	0.4636934
69	0x3eceb93b	0.40375695
70	0xbfd865e3	-1.6906093
71	0x3f665b50	0.8998308
72	0x3fb2a4c8	1.3956537
73	0x3f8f5765	1.1198546
74	0x3f1dbfa7	0.61620563
75	0x3d816046	0.06317191
76	0xbc7fb08c	-0.015606057
77	0xbf67a832	-0.9049102
78	0x3ea4d057	0.321902
79	0xbdd865e8	-0.10566312
80	0x3eef1b14	0.46700346
81	0xbea46a76	-0.32112473
82	0x3f631e26	0.8871788
83	0x3e9ef742	0.31048018
84	0xbe4fbab4	-0.20286065
85	0x3e46ff34	0.1943329
86	0xbe00b803	-0.12570195
87	0xbea506bd	-0.32231703
88	0xbe3c21cf	-0.18372272
89	0xbe495d30	-0.19664454
90	0x3f875da7	1.0575455
91	0xbeb328ee	-0.34992164
92	0xbefff18c	-0.49988973
93	0xbef0b573	-0.47013435
94	0x3e4476cc	0.19185942
95	0xbf381c99	-0.71918637
96	0xbef595d2	-0.47965866
97	0x3e57fcbf	0.21092509
98	0x3eb7d3f1	0.35903886
99	0x3f265ce4	0.6498549
100	0xbd286880	-0.041115284
101	0xbebffc95	-0.37497392
102	0x3f41e505	0.7574008
103	0x3f915454	1.135386
104	0x3fa9e8cf	1.3274173
105	0x3f99c272	1.2012465
106	0x3eacd149	0.33753422
107	0xbf174f32	-0.5910522
108	0xbfa07684	-1.2536168
109	0x3d91bf95	0.071166195
110	0xbf018093	-0.50586814
111	0x3fb715be	1.430351
112	0xbf5576de	-0.833845
113	0xbe77fa36	-0.24216542
114	0x3e8ed76b	0.27898726
115	0xbe197271	-0.14985062
116	0x3f1d4a10	0.61441135
117	0x3e3ba761	0.18325569
118	0xbefc5468	-0.49283147
119	0xbe9e3096	-0.30896443
120	0x3fad73b0	1.355093
121	0xbf1ececb	-0.6203429
122	0x3e62b85a	0.22140637
123	0x3fb17f0f	1.38669
124	0x3e05357d	0.13008685
125	0x3f0319ec	0.5121143
126	0xbf4e3114	-0.8054364
127	0xbfd6640c	-1.6749282
128	0x3f2a2281	0.664589
129	0x3c530521	0.012879641
130	0x3f84732b	1.0347646
131	0xbe74c46e	-0.23903057
132	0xbe880422	-0.26565653
133	0xbf1489aa	-0.5802256
134	0x3e7dc4d9	0.24782123
135	0x3f6339ae	0.8875989
136	0x3f113a67	0.5672974
137	0x3e9b7d92	0.3036924
138	0x3fa0f41d	1.2574497
139	0x3e93e725	0.28887287
140	0x3e3c9a83	0.18418317
141	0xbe20bdaf	-0.15697359
142	0xbef59f68	-0.4797318
143	0x3ec9bb05	0.39400497
144	0xbf1179e7	-0.56826633
145	0x3f16bba7	0.58880085
146	0x3e8fd760	0.28094006
147	0x3e9e2ac9	0.30892017
148	0x3ec70cc2	0.3887692
149	0xbdb10c52	-0.08644928
150	0x3f3cd4c1	0.73762137
151	0x3e2907b1	0.1650684
152	0x3f5c74b1	0.86115557
153	0x3e95fb2c	0.2929319
154	0x3f828a57	1.0198468
155	0x3e39f207	0.18158732
156	0x3e9ba12a	0.30396396
157	0xbed96134	-0.42456973
158	0x3e90e4ab	0.2829946
159	0x3e1529c8	0.1456672
160	0xbd3b7f44	-0.045775667
161	0x3f423093	0.7585537
162	0xbedaca88	-0.42732644
163	0x3f44487e	0.76673114
164	0xbf160253	-0.58597296
165	0xbf324acc	-0.6964538
166	0xbcda45bf	-0.026644586
167	0x3cbe5892	0.023235593
168	0xbf0ef120	-0.5583668
169	0xbf9f298a	-1.2434552
170	0xbe11e30c	-0.14246768
171	0x3f9881cb	1.191461
172	0x3ed30600	0.41215515
173	0xbed33960	-0.4125471
174	0x3f266e4a	0.6501204
175	0x3f864b8a	1.0491803
176	0x3f59a3c3	0.85015506
177	0x3ed7f60a	0.421799
178	0x3fd41ab0	1.6570644
179	0xbd97415c	-0.07385513
180	0x3eb664c3	0.3562375
181	0xbd2b6150	-0.04184085
182	0x3dc5975e	0.096480116
183	0x3ec4a7c4	0.38409245
184	0x3f24285b	0.6412408
185	0x3e1243e7	0.14283715
186	0x3f720750	0.9454241
187	0xbf4c34dc	-0.79768157
188	0xbda5fdce	-0.0810505
189	0xbe4ad364	-0.19807202
190	0x3ebc8dcf	0.3682694
191	0x3ee0cc05	0.43905655
192	0x3f2c39f3	0.67275923
193	0xbd1a5e4e	-0.037687592
194	0x3fab4f70	1.3383617
195	0x3e96713a	0.2938326
196	0x3ef06fbb	0.46960244
197	0xbdec7cf7	-0.11547273
198	0xbf17238e	-0.5903863
199	0x3ee3008e	0.4433636
200	0x3f953ff4	1.1660142
201	0xb97772e9	-0.00023598563
202	0x3fa94073	1.3222793
203	0xbc059ce9	-0.008155086
204	0x3ea1790d	0.31537667
205	0xbe3a2068	-0.18176425
206	0xbd2432a0	-0.040087342
207	0x3f1be120	0.6089039
208	0x3f31dcba	0.69477427
209	0x3f4d4f13	0.8019878
210	0x3f795007	0.9738774
211	0xbefc2b43	-0.49251756
212	0x3e9c1d5e	0.30491155
213	0xbea7e4c9	-0.32791737
214	0xbe945737	-0.2897279
215	0x3efc405a	0.49267846
216	0x3f49028b	0.78519505
217	0x3f24b9f9	0.6434627
218	0x3f98cc70	1.1937389
219	0x3e8d8370	0.2763934
220	0x3eb00067	0.34375307
221	0x3ca2b1b7	0.019860132
222	0xbeb14ae8	-0.3462746
223	0x3f35adb6	0.70968187
224	0x3f8b9138	1.0903692
225	0x3e9fc7e5	0.31207195
226	0x3f862ef0	1.0483074
227	0x3dc19f2a	0.09454186
228	0xbe31c02a	-0.17358461
229	0xbf11dab7	-0.5697436
230	0x3f01a897	0.5064787
231	0x3f2ec577	0.6827006
232	0x3f7d7a32	0.9901458
233	0x3e91baf9	0.2846296
234	0xbde51beb	-0.111869656
235	0x3e71cb76	0.2361277
236	0xbf8a9ce6	-1.0829132
237	0x3ed259cd	0.41084138
238	0xbe3da370	-0.18519378
239	0xbf528e94	-0.82248807
240	0x3eed102b	0.46301398
241	0x3e8151f0	0.25257826
242	0x3e129e55	0.14318211
243	0xbd2e4fd9	-0.042556617
244	0x3f4f76b3	0.81040496
245	0x3fc67201	1.5503541
246	0xbeab487c	-0.3345374
247	0xbefa8110	-0.48926592
248	0xbe49719c	-0.19672245
249	0xbeb6cf4a	-0.35705024
250	0x3cb0b3f0	0.021570176
251	0x3ebbf828	0.36712766
252	0xbeb11020	-0.34582615
253	0x3f42b5c9	0.7605863
254	0x3d977a40	0.07396364
255	0xbd06b901	-0.032891277

lstm.weight_ih_l0 f4 [256, 9]
0	0x3e646c78	0.22307003
1	0xbd0e7a2d	-0.034784485
2	0xbe114f33	-0.14190368
3	0x3e237408	0.15962231
4	0xbe930dd6	-0.28721493
5	0x3dd0521a	0.1017191
6	0x3e863a27	0.26216242
7	0xbd506b0f	-0.05088335
8	0xbde103e2	-0.10987069
9	0x3e382dba	0.17986193
10	0x3d6f1362	0.058368094
11	0xbdcfeafd	-0.10152242
12	0xbddc6c25	-0.107628144
13	0xbd01fa4a	-0.031732835
14	0x3ed8a145	0.4231054
15	0x3e2aae92	0.16668156
16	0xbe87627c	-0.26442325
17	0xbe6f3da2	-0.23363355
18	0x3ecf0c4d	0.40439072
19	0x3caf0737	0.021365745
20	0xbe1c564a	-0.15267292
21	0x3c11b6b8	0.008893661
22	0x3d4206f9	0.04736993
23	0xbe4bce79	-0.19902982
24	0x3dcfd592	0.10148157
25	0x3e07d9c1	0.1326666
26	0xbdfb8fbc	-0.122832745
27	0x3ec7512e	0.38929123
28	0x3e320864	0.17386013
29	0x3c9e92ba	0.019357074
30	0xbf096548	-0.5367017
31	0xbe1c5b97	-0.15269314
32	0xbce810b2	-0.028328273
33	0xbcade646	-0.021227967
34	0xbec142be	-0.37746233
35	0xbe10c7f0	-0.1413877
36	0x3e8323dc	0.25613296
37	0xbdbf0a4f	-0.09328138
38	0xbea10c01	-0.3145447
39	0x3e0465e8	0.12929499
40	0xbe91278c	-0.28350484
41	0xbed961b8	-0.42457366
42	0x3d872f54	0.06600824
43	0xbdbcbd32	-0.09215774
44	0xbe36917c	-0.17828935
45	0x3e70bda8	0.23509848
46	0xbeb24031	-0.348146
47	0x3e9914f5	0.298988
48	0xbe64cad3	-0.22342996
49	0xbd95be41	-0.07311679
50	0x3dbfde13	0.09368529
51	0x3eb4436d	0.35207692
52	0x3dc4e97a	0.096148446
53	0xbd94f267	-0.07272797
54	0x3e8ef6be	0.27922624
55	0xbe646e98	-0.22307813
56	0xbe8e4a77	-0.27791187
57	0x3e9d4c0f	0.3072209
58	0xbda26b4b	-0.07930621
59	0x3e1354b1	0.14387776
60	0x3db0c4c7	0.08631282
61	0x3c76b877	0.015058628
62	0xbe20a086	-0.15686235
63	0x3d403c45	0.046932478
64	0xbdd64e14	-0.10464111
65	0x3e462590	0.19350266
66	0x3f146ff2	0.57983315
67	0x3eeeaa17	0.46614143
68	0x3e1e4829	0.15457214
69	0xbe5c331c	-0.21503872
70	0x3efeec4e	0.4978966
71	0x3e8692c1	0.2628384
72	0xbe6f37a7	-0.23361073
73	0x3e9e8643	0.3096181
74	0x3e9e2713	0.30889186
75	0x3e203c69	0.15648045
76	0xbdb63dd5	-0.08898512
77	0x3dc7d1fa	0.09756847
78	0xbe4ca151	-0.19983412
79	0x3e29a1f6	0.1656569
80	0x3d3fc397	0.04681739
81	0x3e1f8979	0.15579785
82	0x3e44952c	0.1919753
83	0x3d3f4eca	0.046706
84	0xbd947995	-0.072497524
85	0x3e046d73	0.12932377
86	0xbdbd3584	-0.09238723
87	0xbcdb08b6	-0.026737552
88	0x3d37b856	0.04485353
89	0x3d7792c8	0.060442716
90	0x3e7fa525	0.24965341
91	0xbd49ebcd	-0.049297143
92	0x3e0139f6	0.12619767
93	0xbe710052	-0.23535278
94	0x3e8c89e1	0.27448943
95	0xbe25e8bb	-0.16202061
96	0xbce8720c	-0.028374694
97	0x3eb979c0	0.362257
98	0x3d83c206	0.064334914
99	0x3e83a4b4	0.25711596
100	0xbd51567e	-0.051107876
101	0x3e9827a1	0.29717734
102	0xbcb20a78	-0.021733508
103	0xbe2640ec	-0.16235703
104	0xbebe9d41	-0.3722935
105	0x3e78cc6a	0.24296728
106	0xbdf65469	-0.12027819
107	0x3de1d7d0	0.11027491
108	0x3de98e74	0.11404124
109	0xbea8bde2	-0.3295737
110	0xbea63523	-0.32462415
111	0xbb61ba4a	-0.0034443312
112	0x3ed6986e	0.4191317
113	0x3d0f4586	0.034978412
114	0xbec3086e	-0.3809237
115	0x3ea09a37	0.31367657
116	0x3e86e31e	0.26345152
117	0x3e93aa97	0.28841087
118	0x3dbfdf7e	0.093687996
119	0x3e7505f6	0.23928055
120	0xbd090ac7	-0.033457544
121	0x3e42a262	0.19007257
122	0x3db5913f	0.08865594
123	0x3c6f4582	0.014603974
124	0x3bb60098	0.00555427
125	0xbe41f929	-0.18942703
126	0x3d90fe04	0.070797
127	0xbc5e5626	-0.013570344
128	0xbd7a1a32	-0.061060138
129	0xbe841b1d	-0.25801936
130	0xbccf89c0	-0.025334239
131	0x3dff7ac5	0.12474588
132	0x3ca99745	0.020702014
133	0x3c6ae82d	0.014337582
134	0x3e0817b2	0.13290289
135	0x3e9cf494	0.30655348
136	0xbeaff0d5	-0.34363428
137	0xbef31d3f	-0.4748325
138	0xbd39927b	-0.04530571
139	0xbdfb1558	-0.1225993
140	0x3e14e16e	0.1453912
141	0x3f0b9ca6	0.545359
142	0xbe4182d0	-0.18897557
143	0x3e3b378e	0.18282911
144	0xbe66cbec	-0.22538728
145	0xbe8a3cb7	-0.26999447
146	0xbd8f6034	-0.07000771
147	0xbe2e818e	-0.17041609
148	0x3d504b84	0.050853267
149	0xbe76b960	-0.24094152
150	0x3eb8ea98	0.3611648
151	0xbded8d92	-0.11599268
152	0xbe6e30bf	-0.23260783
153	0x3cd5b08c	0.02608516
154	0x3ea331eb	0.31874022
155	0xbcc2b584	-0.023768194
156	0xbe1c3f7d	-0.15258594
157	0xbdb0c8c8	-0.08632046
158	0xbe2b2bf1	-0.16715981
159	0xbd0014a0	-0.03126967
160	0xbe365392	-0.17805317
161	0x3d537d0a	0.05163292
162	0x3eaeaa33	0.34114227
163	0xbdaddcd9	-0.08489389
164	0xbde4fe4a	-0.11181314
165	0xbecd403d	-0.40088072
166	0xbe37544e	-0.17903253
167	0x3e2c38e5	0.16818579
168	0xbe3e75e0	-0.18599653
169	0xbdc51773	-0.09623613
170	0xbd1cfa5a	-0.03832469
171	0x3e583d4c	0.21117133
172	0xbe07347e	-0.13203618
173	0x3d34727f	0.044054504
174	0x3e0b362b	0.13594882
175	0x3da455ea	0.08024199
176	0x3ec581cb	0.38575587
177	0xbdeb40d6	-0.11486976
178	0x3dca0fb8	0.09866279
179	0x3d8b8897	0.06813162
180	0xbe44b994	-0.19211417
181	0xbe5599ea	-0.20859495
182	0xbe02b61c	-0.12764782
183	0xbcef7044	-0.029228337
184	0x3e9c9594	0.3058287
185	0x3defeb1c	0.117147654
186	0xbf046abf	-0.5172538
187	0x3e15b53a	0.14619914
188	0x3d6da786	0.05802109
189	0x3e8eb3c2	0.2787152
190	0xbe9613c7	-0.29311964
191	0xbea30fb4	-0.31847918
192	0xbba2b4f8	-0.004965421
193	0x3e336200	0.17517853
194	0x3b9036ff	0.0044010873
195	0xbdf4a000	-0.1194458
196	0xbdc5b490	-0.0965358
197	0x3d9591dd	0.07303212
198	0x3e0fee0f	0.14055656
199	0x3c42f1e9	0.011898496
200	0xbd945e83	-0.07244589
201	0x3e57984c	0.2105419
202	0xbe055a3e	-0.13022706
203	0x3e01d1af	0.12677644
204	0x3e6fd43f	0.23420809
205	0x3c83cd96	0.016089242
206	0xbe5d028b	-0.21583001
207	0xbe572392	-0.21009663
208	0x3e8ac3d2	0.27102524
209	0x3d41841d	0.047245134
210	0x3dfa5506	0.12223248
211	0x3e3a1434	0.1817177
212	0x3e184c25	0.14872797
213	0xbd84bf63	-0.064818166
214	0x3e09acc1	0.13444807
215	0x3e4e50a2	0.20147946
216	0xbe57f1cb	-0.2108833
217	0xbde35020	-0.11099267
218	0x3dede6be	0.11616276
219	0x3dbe021d	0.09277747
220	0x3e276f26	0.16350994
221	0x3d2130aa	0.03935305
222	0xbe8695bc	-0.26286113
223	0x3ed57fd5	0.4169909
224	0x3e8704f1	0.26370957
225	0xbe4f4f2f	-0.2024505
226	0x3e2f5fae	0.17126343
227	0x3d142831	0.036171142
228	0xbd15e492	-0.036594935
229	0x3ebd82d5	0.3701388
230	0x3e8eb039	0.27868822
231	0x3cfa16a8	0.030528381
232	0xbe3ebe55	-0.18627293
233	0xbe3c2638	-0.18373954
234	0x3e78b764	0.24288708
235	0xbe82645a	-0.25467187
236	0xbd45c7d6	-0.04828628
237	0x3d9b33e8	0.0757826
238	0x3e4bccc8	0.19902337
239	0xbe11d976	-0.14243111
240	0x3d6528f3	0.055947255
241	0x3e5d2c65	0.21598966
242	0xbd79e8e3	-0.061013114
243	0x3dc95a6e	0.09831701
244	0xbe8fd8d6	-0.2809512
245	0x3e961a45	0.29316917
246	0x3ea8e793	0.32989177
247	0x3e223da5	0.15843828
248	0xbe032215	-0.1280597
249	0xbd1b10c3	-0.037857782
250	0x3efae154	0.49000037
251	0xbe77ec2a	-0.24211183
252	0x3db59702	0.08866693
253	0x3dce55c5	0.10074953
254	0x3e1cd35c	0.15315002
255	0x3dfded68	0.12398797

lstm.weight_hh_l0 f4 [256, 64]
0	0xbeaf5b2b	-0.34249243
1	0x3f052354	0.5200703
2	0xbe59b13b	-0.21259014
3	0x3e95c918	0.29254985
4	0x3d1eabf2	0.0387382
5	0xbd9b3574	-0.07578555
6	0x3d9bbe7c	0.076046914
7	0xbe3a9e8a	-0.1822454
8	0x3d6db034	0.05802937
9	0xbe48f621	-0.1962514
10	0x3e2a0e14	0.16606933
11	0x3d9780b7	0.07397597
12	0x3ead8dbb	0.33897194
13	0xbe393d2c	-0.18089741
14	0x3f109b35	0.5648683
15	0x3f28ca16	0.6593336
16	0xbecb885e	-0.39752477
17	0xbe251a33	-0.16123275
18	0x3e93d699	0.28874663
19	0xbd28101d	-0.04103099
20	0xbe86271d	-0.26201716
21	0x3eab623c	0.33473384
22	0xbd0b4db8	-0.034009665
23	0xbe636430	-0.22206187
24	0x3e47b2d2	0.19501808
25	0xbecaa574	-0.39579356
26	0x3eeea673	0.46611366
27	0x3e31bc8c	0.17357081
28	0x3ca8f8cb	0.020626446
29	0x3e1f1144	0.1553393
30	0xbe11f36d	-0.14253016
31	0xbdb16719	-0.086622424
32	0xbe76ba62	-0.24094537
33	0x3ddfa73d	0.1092057
34	0xbe40cd07	-0.18828212
35	0xbde75c65	-0.1129692
36	0xbe9fd990	-0.31220675
37	0xbeb37ba1	-0.3505526
38	0xbe2301f6	-0.15918717
39	0x3e9d2363	0.3069106
40	0x3e27c69d	0.16384359
41	0x3e250bae	0.16117737
42	0x3e1f6841	0.15567113
43	0xbd3c4fed	-0.04597466
44	0xbe77f45b	-0.24214308
45	0xbf1220df	-0.5708141
46	0x3e4e316a	0.20136037
47	0x3ee23ad6	0.44185513
48	0x3de26d06	0.11055951
49	0x3ecc7447	0.39932463
50	0xbd245b40	-0.040126085
51	0xbe2ab504	-0.16670614
52	0xbd6b7fb8	-0.05749485
53	0xbeeee88e	-0.466618
54	0x3e631547	0.22176085
55	0xbe13b08a	-0.14422813
56	0x3d47c8d6	0.048775516
57	0xbc4bffa5	-0.012451087
58	0xbcbf2568	-0.023333266
59	0x3ec55c4d	0.38546982
60	0xbd3d5f4f	-0.04623347
61	0x3dd02d98	0.10164946
62	0xbeba6db1	-0.36411813
63	0xbf01ddec	-0.5072925
64	0x3cf1ad01	0.02950144
65	0xbd9e505d	-0.07730172
66	0x3e31cd6e	0.17363521
67	0xbf9dac6e	-1.2318246
68	0x3dff60b4	0.124696165
69	0x3f9d3ca2	1.2284129
70	0xbe047eaf	-0.12938951
71	0xbe9add68	-0.30247045
72	0xbe244ab2	-0.16044119
73	0xbedabe9a	-0.42723542
74	0x3ee08730	0.4385314
75	0xbf800260	-1.0000725
76	0xbf21619b	-0.6303956
77	0xbd8b079e	-0.06788562
78	0xbee7f232	-0.45301968
79	0xbe89e8df	-0.2693548
80	0x3df73d6a	0.12072261
81	0x3edd974d	0.43279496
82	0x3e21abea	0.15788236
83	0x3d602943	0.05472685
84	0x3f107a59	0.5643669
85	0x3e7f5e82	0.24938396
86	0x3f314f2f	0.6926145
87	0x3d769073	0.06019635
88	0xbe285f94	-0.1644271
89	0x3e7baf56	0.24578604
90	0xbeb03ce4	-0.34421456
91	0xbf170b9a	-0.5900208
92	0x3e82b47f	0.25528333
93	0xbe51c307	-0.20484553
94	0xbec63cae	-0.3871817
95	0xbf11c736	-0.56944597
96	0x3db09656	0.08622424
97	0xbf06622d	-0.52493554
98	0xbe771f8d	-0.2413313
99	0x3d45c847	0.048286702
100	0xbe8371d9	-0.25672796
101	0xbfa846f2	-1.3146651
102	0xbda96a1e	-0.08272193
103	0x3915c97f	0.0001428481
104	0xbd3124aa	-0.043247856
105	0xbb255783	-0.0025229163
106	0xbd8e73d8	-0.06955689
107	0xbe31ba24	-0.17356163
108	0xbf0faf21	-0.561266
109	0x3e8cbba3	0.27486905
110	0x3e73f92f	0.23825525
111	0xbf685ad0	-0.9076357
112	0x3e6b3a7b	0.22971527
113	0xbe814395	-0.25246873
114	0x3f5b739c	0.8572328
115	0xbe8190b0	-0.253057
116	0x3e20770f	0.15670417
117	0xbf38595e	-0.72011364
118	0xbe1ddb10	-0.15415597
119	0xbb7f008b	-0.0038910236
120	0x3e2a403a	0.16626063
121	0x3d9cb1b9	0.076510854
122	0xbea82a63	-0.32844839
123	0xbd3a9815	-0.045555193
124	0xbf0d70e7	-0.552504
125	0x3d6128cd	0.05497055
126	0x3ea88d85	0.3292047
127	0xbee5ab42	-0.44857222
128	0xbeb25f11	-0.34838155
129	0x3e9f2709	0.3108447
130	0x3ee6c8cb	0.45075068
131	0xbf17b72e	-0.59263885
132	0xbd0f2760	-0.03494966
133	0x3ecce453	0.40017948
134	0x3ed75ddf	0.42063805
135	0xbe05dc04	-0.1307221
136	0xbdcff88a	-0.10154827
137	0xbe8b1e00	-0.27171326
138	0x3f1e4fdc	0.61840606
139	0xbefa5f24	-0.48900712
140	0xbe0fc098	-0.14038312
141	0xbf1d20e3	-0.61378306
142	0x3f36718e	0.7126702
143	0xbf113e16	-0.5673536
144	0xbe97a5d7	-0.29618713
145	0xbe992a0f	-0.299149
146	0xbeafd7ca	-0.3434432
147	0x3ed74bd4	0.4205004
148	0xbd2b6032	-0.041839786
149	0x3b3eb2f7	0.002909837
150	0x3c896399	0.016771125
151	0xbf287da6	-0.65816724
152	0x3e87e9a1	0.26545432
153	0xbe240e7a	-0.16021147
154	0xbb91ff7e	-0.004455506
155	0xbe719779	-0.23592938
156	0x3dc8f0e8	0.09811574
157	0x3e4bfa88	0.19919789
158	0xbf096f4a	-0.5368544
159	0xbf1314d5	-0.5745366
160	0x3e63d7b2	0.2225025
161	0xbf3010d9	-0.6877571
162	0xbe938e83	-0.28819665
163	0xbec2132a	-0.37905246
164	0xbf398784	-0.72472405
165	0xbeefd626	-0.4684307
166	0xbd8ad187	-0.067782454
167	0x3e984f5f	0.29748055
168	0x3ea87bcc	0.3290695
169	0xbe91568e	-0.28386348
170	0x3e21f5e1	0.15816452
171	0xbe3ff82d	-0.18747015
172	0xbf52e14d	-0.8237503
173	0x3c080edb	0.008304323
174	0xbea55d7d	-0.32297888
175	0x3eea1aa4	0.4572345
176	0x3d2595dd	0.040426124
177	0xbe9b7efd	-0.30370322
178	0x3ed0ae32	0.407579
179	0xbebc20cf	-0.3674378
180	0xbf1c6b55	-0.61101276
181	0xbf599b34	-0.85002446
182	0xbeb53a95	-0.35396257
183	0x3e0f0fc1	0.13970853
184	0xbec2371c	-0.3793267
185	0xbe84bcf3	-0.25925407
186	0x3d96ab0f	0.073568456
187	0x3e9a01f1	0.30079606
188	0xbee1c7c3	-0.4409772
189	0xbd14dbff	-0.036342617
190	0xbf1a5149	-0.6028028
191	0xbf17bf5f	-0.59276384
192	0xbd5b766c	-0.053579733
193	0x3f5c409d	0.8603609
194	0xbea7a2bd	-0.32741347
195	0xbed71d5d	-0.4201459
196	0x3f499988	0.78749895
197	0x3ecd71c8	0.4012587
198	0xbee12ee0	-0.43981075
199	0x3ebdbb43	0.37056932
200	0xbe01d3d9	-0.1267847
201	0x3f7a239f	0.97710603
202	0xbe98ba04	-0.2982942
203	0x3cb208e1	0.02173275
204	0x3d920860	0.07130504
205	0x3f378c42	0.7169839
206	0x3efd88de	0.49518484
207	0x3f09ef69	0.53880936
208	0x3e8f8d82	0.2803765
209	0xbec18ca0	-0.378026
210	0x3f3fff0e	0.7499856
211	0xbe725898	-0.23666608
212	0xbe827485	-0.25479522
213	0x3eb76bc8	0.35824418
214	0xbf2be468	-0.67145395
215	0xbf5d5a39	-0.86465794
216	0x3f69da5c	0.91348815
217	0xbec3a409	-0.38211086
218	0x3f0add9c	0.542444
219	0x3f2e94f8	0.6819606
220	0x3d2e545c	0.04256092
221	0x3ec5f201	0.38661197
222	0xbe6e0d87	-0.23247348
223	0x3edd2c02	0.43197638
224	0xbe28b40d	-0.16474934
225	0x3e68a0ac	0.22717541
226	0x3d035819	0.03206644
227	0x3e7b5f07	0.24547969
228	0xbf6639c8	-0.8993192
229	0x3f0a1d10	0.53950596
230	0x3f588b05	0.84587127
231	0xbf0d8a09	-0.5528875
232	0xbed25f16	-0.4108817
233	0x3eec6e7f	0.46178052
234	0x3e76a6c4	0.24087054
235	0x3dcfd6ad	0.10148368
236	0x3e84454c	0.2583412
237	0xbf0036e2	-0.50083745
238	0xbecdf6cb	-0.4022735
239	0x3d2bdd14	0.041958883
240	0xbe520b90	-0.20512223
241	0x3ee694c2	0.45035368
242	0x3c806dbe	0.01567733
243	0x3f40084b	0.75012654
244	0x3f143fff	0.5791015
245	0xbdd7aa3a	-0.10530515
246	0x3ed4b09e	0.41540998
247	0xbae2a8a7	-0.0017292694
248	0x3deaa3f9	0.114570566
249	0x3e10c9dc	0.14139503
250	0x3f2fbfc6	0.68652
251	0x3eab59fd	0.33467093
252	0x3f0ae958	0.54262304
253	0x3df3a820	0.11897302
254	0xbe1c3deb	-0.15257995
255	0xbf0a4a4d	-0.54019624

lstm.bias_ih_l0 f4 [256]
0	0xbf79855d	-0.9746912
1	0xbdb4f8b3	-0.08836498
2	0xbf056ca0	-0.52118874
3	0xbe824d4f	-0.25449607
4	0xbfcf598a	-1.61992
5	0xbf36c764	-0.71397996
6	0xbf4767e1	-0.7789288
7	0xbe0fdd34	-0.14049226
8	0xbeeb360a	-0.45939666
9	0xbf14faee	-0.5819539
10	0xbf74f45c	-0.9568536
11	0xbf4a2998	-0.7896972
12	0xbf039249	-0.5139509
13	0xbf7072ef	-0.93925375
14	0xbed2e56e	-0.41190666
15	0xbf2aad85	-0.6667102
16	0xbe4703de	-0.19435069
17	0xbeecadea	-0.46226436
18	0xbf297ece	-0.66209114
19	0xbf881686	-1.0631874
20	0x3e9b0464	0.30276787
21	0xbf8656ca	-1.0495236
22	0xbe84d9b6	-0.2594735
23	0xbe53bb1e	-0.20676848
24	0x3ce253e9	0.027627902
25	0x3f145896	0.5794767
26	0xbf62ff1e	-0.8867053
27	0xbf37e1e5	-0.7182906
28	0xbf185967	-0.5951142
29	0xbee4ea4e	-0.4471001
30	0xbf9a7908	-1.2068186
31	0xbead8770	-0.33892393
32	0xbf9e6032	-1.2373106
33	0xbfb49425	-1.410771
34	0xbe4995b9	-0.19686021
35	0xbeae8011	-0.34082082
36	0xbd934e5f	-0.071926825
37	0xbea95a18	-0.3307655
38	0xbf985b7a	-1.1902916
39	0xbf9190ab	-1.1372274
40	0xbede3d27	-0.4340603
41	0xbfba5d7b	-1.4559778
42	0xbf338640	-0.70126724
43	0x3d47aedc	0.048750743
44	0xbf4c8ea8	-0.79905176
45	0xbfa7fbe6	-1.3123748
46	0x3d758560	0.05994165
47	0xbf93075a	-1.1486619
48	0xbd3117dd	-0.04323565
49	0xbe92ec7d	-0.2869605
50	0xbf087524	-0.5330374
51	0xbee11aaf	-0.4396567
52	0xbf71b7c6	-0.9442104
53	0xbec335c5	-0.3812696
54	0xbf426f71	-0.75951296
55	0xbf3b55b9	-0.7317768
56	0xbf6d268a	-0.9263693
57	0xbf94f695	-1.1637751
58	0xbe21aa61	-0.1578765
59	0x3e5d859c	0.21632999
60	0xbf4341dd	-0.76272374
61	0xbe40b5ca	-0.18819347
62	0xbf902461	-1.1261102
63	0xbf2526bc	-0.6451223
64	0xbf76db26	-0.96428144
65	0x3d7f6edd	0.062361587
66	0xbf7e4bd2	-0.9933444
67	0xbf9aadfb	-1.2084345
68	0xbe7706c2	-0.24123672
69	0xbe48fa34	-0.19626695
70	0xbf19e673	-0.6011726
71	0xbf59df02	-0.8510591
72	0xbf47ab7d	-0.77996045
73	0xbf5635bc	-0.8367574
74	0xbf86f47c	-1.0543361
75	0xbf2e3bda	-0.68060076
76	0xbf98928d	-1.1919724
77	0xbf4904ed	-0.7852314
78	0xbf99f6c5	-1.2028433
79	0xbea75c51	-0.3268762
80	0xbfc4a1df	-1.5361899
81	0xbf8fb462	-1.1226923
82	0xbf035574	-0.51302266
83	0xbf723ad2	-0.94621
84	0xbf8178b1	-1.0114957
85	0x3cde7537	0.027155502
86	0xbfbb5888	-1.4636393
87	0xbfadd48e	-1.3580492
88	0xbf577160	-0.8415737
89	0x3f7a8cb1	0.9787093
90	0xbf3fa095	-0.74854404
91	0xbf813c06	-1.0096443
92	0xbf7a1bec	-0.97698855
93	0xbf3b1161	-0.73073393
94	0xbee8defb	-0.4548262
95	0xbec71f47	-0.3889105
96	0xbf392321	-0.7231923
97	0xbf1565c5	-0.58358413
98	0xbf13af47	-0.57689327
99	0xbf99364b	-1.1969694
100	0xbe437956	-0.19089255
101	0xbee38b81	-0.4444237
102	0xbf10b799	-0.5653015
103	0xbf36f6bc	-0.71470237
104	0xbdec638f	-0.11542427
105	0xbec8cba9	-0.3921788
106	0xbfa5e7e0	-1.2961388
107	0xbf02d400	-0.51104736
108	0xbf00f95f	-0.5038051
109	0xbf054f9d	-0.52074605
110	0xbf0643aa	-0.52447
111	0xbf09446d	-0.53620034
112	0xbe0ca3f5	-0.1373442
113	0xbed9dd51	-0.42551664
114	0xbf9832ec	-1.189054
115	0xbf4d321c	-0.80154586
116	0xbf7059ee	-0.9388722
117	0xbfa58ad7	-1.2932996
118	0xbf85ada7	-1.044362
119	0xbf02f8e6	-0.5116104
120	0xbe9c8a57	-0.30574295
121	0xbf20d6ed	-0.6282795
122	0xbf7bcc56	-0.98358667
123	0xbf940c23	-1.1566204
124	0xbf7c4e51	-0.98557
125	0xbf7234a1	-0.94611555
126	0xbe0eb16c	-0.13934869
127	0xbf1bcb1c	-0.60856795
128	0xbeaf2eb3	-0.34215316
129	0x3e745f95	0.23864587
130	0x3e35c9c0	0.17752743
131	0xbe283955	-0.1642812
132	0xbeaa1863	-0.3322173
133	0x3e69ff1d	0.22851224
134	0x3e736ecd	0.23772736
135	0xbe016dc7	-0.12639533
136	0x3dfd36e4	0.12363985
137	0xbdc4d722	-0.09611346
138	0x3e998a9a	0.29988557
139	0xbe92a8ba	-0.28644353
140	0xbe8b069f	-0.2715349
141	0xbef5b88c	-0.4799236
142	0xbd65bc10	-0.056087554
143	0xbe15b675	-0.14620383
144	0xbda97c2f	-0.08275639
145	0x3e242b32	0.16032103
146	0xbe1827b2	-0.14858893
147	0x3ed2d052	0.4117456
148	0x3e0dcb2a	0.13847032
149	0xbf5c96d8	-0.8616767
150	0x3e830210	0.2558751
151	0x3d82edb5	0.06392995
152	0xbe3db4cb	-0.18525998
153	0xbd94215d	-0.07232926
154	0xbd9d543b	-0.07682081
155	0xbdf29b25	-0.11845998
156	0x3e27babf	0.16379832
157	0xbc4cf289	-0.012508997
158	0x3f562ff4	0.8366692
159	0xbe6ac990	-0.22928452
160	0x3f412c13	0.75457877
161	0xbf0a2992	-0.5396968
162	0x3d9c218f	0.07623588
163	0xbca4fed4	-0.020141043
164	0xbcd12090	-0.025528222
165	0x3e12c7de	0.14334056
166	0xbe48bbb8	-0.19602859
167	0x3e95ba2e	0.29243606
168	0x3e5a3a57	0.21311317
169	0xbf1d82e6	-0.6152786
170	0xbe538e0a	-0.20659652
171	0x3e3a05b1	0.18166234
172	0xbeccec3a	-0.40023977
173	0x3ecbda66	0.39815062
174	0xbcca5630	-0.0246993
175	0x3ef9bdd5	0.48777643
176	0xbdac0f49	-0.08401353
177	0xbd916f11	-0.07101262
178	0x3e9deb56	0.3084361
179	0xbe80a1f4	-0.2512356
180	0xbe28fb4f	-0.16502117
181	0xbda5207e	-0.08062838
182	0xbe34c31e	-0.17652556
183	0x3de1e173	0.11029329
184	0xbf1dd4aa	-0.61652625
185	0xbf6b7127	-0.9196953
186	0x3c8666cb	0.016406437
187	0x3b70b0bd	0.0036726438
188	0xbe4411c9	-0.1914741
189	0xbdd3d6fb	-0.10343739
190	0xbf0a3fd1	-0.54003626
191	0x3f2edeb9	0.683086
192	0xbf2431b4	-0.6413834
193	0xb91d941e	-0.00015027865
194	0xbe6c7452	-0.23091248
195	0xbe686149	-0.22693361
196	0xbf9d26c5	-1.2277457
197	0xbecde295	-0.4021193
198	0xbf33fbd4	-0.70306134
199	0xbe642d89	-0.22282995
200	0xbe8e7cde	-0.2782964
201	0xbf0ebe0d	-0.55758744
202	0xbf0c5896	-0.5482267
203	0xbf2a15ff	-0.66439813
204	0xbea13c19	-0.31491163
205	0xbf566f66	-0.8376373
206	0xbe2097f9	-0.15682973
207	0xbf3dd51b	-0.741533
208	0x3e022bf6	0.12712082
209	0xbe528509	-0.20558561
210	0xbf4cc79a	-0.7999207
211	0xbf19d34e	-0.6008805
212	0x3e5aaddb	0.21355383
213	0xbf77069d	-0.96494466
214	0xbd4f0bf7	-0.05054852
215	0xbea81b79	-0.3283346
216	0x3edbc6be	0.42925066
217	0xbf5aebf7	-0.85516304
218	0xbf2107e2	-0.62902653
219	0xbf1f9ae5	-0.62345725
220	0xbea77aff	-0.32711026
221	0xbe87ed64	-0.26548302
222	0xbf981c6f	-1.1883677
223	0x3c1eccd9	0.009692394
224	0xbf9f176c	-1.2429023
225	0xbf99f8a1	-1.2029
226	0x3b928aef	0.0044721286
227	0xbea89093	-0.329228
228	0x3ed24633	0.41069183
229	0xbe873fff	-0.26416013
230	0xbf5ba215	-0.8579419
231	0xbf581e9a	-0.84421694
232	0xbe2bfa51	-0.16794707
233	0xbf9d06e6	-1.226773
234	0xbeb36eca	-0.35045463
235	0x3e72e139	0.23718728
236	0xbf7adf7f	-0.9799728
237	0xbfa003e0	-1.2501183
238	0x3dbc7a31	0.09202994
239	0xbf91982d	-1.1374565
240	0x3ee8e642	0.45488173
241	0xbf2a7982	-0.66591656
242	0xbe440c57	-0.19145332
243	0xbf126de7	-0.5719895
244	0xbf6c72f6	-0.92362916
245	0xbebc2e33	-0.36753997
246	0xbf3beca9	-0.7340799
247	0xbf018f15	-0.5060895
248	0xbf78e0d2	-0.9721805
249	0xbf536bf0	-0.82586575
250	0x3ee0e12a	0.43921787
251	0xbee477d1	-0.44622663
252	0xbf0635bb	-0.52425736
253	0xbe5e4a47	-0.21708022
254	0xbfa06cc5	-1.2533194
255	0xbf4ea00d	-0.8071297

lstm.bias_hh_l0 f4 [256]
0	0xbf6d334a	-0.92656386
1	0xbcff5e95	-0.03117303
2	0xbf39a92b	-0.72523755
3	0xbeb52b5a	-0.35384637
4	0xbfd6cb96	-1.678088
5	0xbf470f91	-0.7775813
6	0xbf6af09d	-0.91773397
7	0xbe8724a3	-0.2639514
8	0xbe9ff30b	-0.31240115
9	0xbf213ed9	-0.6298652
10	0xbf86e949	-1.0539943
11	0xbf546e8e	-0.82981193
12	0xbf17620a	-0.5913397
13	0xbf5136fa	-0.8172451
14	0xbeec0aa0	-0.46101856
15	0xbf45e666	-0.77304685
16	0xbe6fdc9e	-0.23424003
17	0xbf00647f	-0.50153345
18	0xbf5e6962	-0.8687955
19	0xbf828752	-1.0197546
20	0x3e8896f3	0.26677665
21	0xbf6810bc	-0.90650535
22	0xbe4572b1	-0.19282033
23	0xbe314c4e	-0.17314264
24	0xbdddb02e	-0.10824619
25	0x3f1d3094	0.6140225
26	0xbf71598d	-0.9427727
27	0xbf170224	-0.5898764
28	0xbf4156bd	-0.7552298
29	0xbf0331af	-0.51247686
30	0xbf9b0f43	-1.2114033
31	0xbea80b7c	-0.32821262
32	0xbf999811	-1.1999532
33	0xbfb90b10	-1.4456501
34	0xbea31e3a	-0.31859
35	0xbeb0e60d	-0.34550515
36	0x3d33540a	0.043781318
37	0xbe5b6366	-0.21424636
38	0xbf8771c7	-1.0581597
39	0xbf723a78	-0.94620466
40	0xbf04a2a8	-0.51810694
41	0xbfb15155	-1.3852946
42	0xbf3056c1	-0.68882376
43	0x3d25e6d9	0.040503357
44	0xbf234a40	-0.6378517
45	0xbfa57c6e	-1.2928598
46	0x3d95e70b	0.073194586
47	0xbf8bed57	-1.0931805
48	0x3d2b7e15	0.041868288
49	0xbefd5138	-0.49476027
50	0xbeeffe0e	-0.46873516
51	0xbf05ff1d	-0.52342397
52	0xbf772fe6	-0.9655746
53	0xbf0a128f	-0.5393457
54	0xbf2875e8	-0.6580491
55	0xbf19626e	-0.59915817
56	0xbf6f9a70	-0.9359503
57	0xbf8cec33	-1.1009582
58	0xbe5a1454	-0.21296817
59	0x3e92b1c6	0.28651255
60	0xbf3c80dc	-0.73634124
61	0xbdd02fd2	-0.10165371
62	0xbf73482f	-0.9503202
63	0xbf2b3da3	-0.66890925
64	0xbf8a4474	-1.080214
65	0x3e3339b7	0.17502485
66	0xbf5eca72	-0.8702766
67	0xbf8d1f84	-1.1025243
68	0xbeb2b27a	-0.34901792
69	0xbd3bffaa	-0.045898117
70	0xbf05a050	-0.5219774
71	0xbf7665b8	-0.9624896
72	0xbf3e42dc	-0.7432077
73	0xbf5ef68b	-0.87094945
74	0xbf7e89fc	-0.994293
75	0xbf212ce7	-0.6295914
76	0xbf946ad2	-1.1595099
77	0xbf6497da	-0.8929421
78	0xbf910554	-1.1329751
79	0xbe964f9a	-0.29357606
80	0xbfb8058b	-1.4376692
81	0xbf8bb85c	-1.0915637
82	0xbf0ff15d	-0.56227666
83	0xbf57b259	-0.8425651
84	0xbf681439	-0.9065586
85	0x3e627233	0.22113876
86	0xbfaa8d62	-1.3324397
87	0xbf9e41e9	-1.2363864
88	0xbf2c0489	-0.6719442
89	0x3f799d19	0.97505337
90	0xbf175ee6	-0.5912918
91	0xbf8d9c12	-1.1063254
92	0xbf91ea66	-1.1399658
93	0xbf6b7b60	-0.9198513
94	0xbf06ed49	-0.5270582
95	0xbe80b83c	-0.2514056
96	0xbf6aed30	-0.9176817
97	0xbf08d903	-0.53456134
98	0xbefa36d4	-0.48869956
99	0xbf9d1423	-1.227177
100	0xbecc6db3	-0.39927444
101	0xbef3b443	-0.47598466
102	0xbee97ef2	-0.45604664
103	0xbf60879d	-0.8770693
104	0xbe198851	-0.14993407
105	0xbee21c8e	-0.4416241
106	0xbfa74137	-1.3066777
107	0xbf04f955	-0.5194295
108	0xbe95c20e	-0.29249614
109	0xbf3d2fe0	-0.73901176
110	0xbf04271b	-0.5162217
111	0xbf0d7152	-0.5525104
112	0x3d1b955d	0.03798424
113	0xbefb672d	-0.49102154
114	0xbf898bc6	-1.074578
115	0xbf54827e	-0.83011615
116	0xbf6f9e4c	-0.93600917
117	0xbfb3ad53	-1.4037269
118	0xbf85be16	-1.0448635
119	0xbf2a5956	-0.66542566
120	0xbe9d9585	-0.30778137
121	0xbf258dbf	-0.6466941
122	0xbf7a1f04	-0.97703576
123	0xbf86a3d1	-1.0518743
124	0xbf5fcee6	-0.87425077
125	0xbf64923c	-0.89285636
126	0xbe926111	-0.2858968
127	0xbf11b5d2	-0.5691806
128	0xbeb67710	-0.35637712
129	0x3eaf21d0	0.34205484
130	0x3e3e211d	0.18567319
131	0xbdee52c4	-0.1163688
132	0xbea5280e	-0.32257122
133	0x3e81e340	0.2536869
134	0x3eab2dda	0.3343342
135	0xbe28cb84	-0.16483885
136	0x3df4827a	0.11938949
137	0xbe9d30ff	-0.30701444
138	0x3ebb897d	0.36628333
139	0xbdad9dc7	-0.08477359
140	0xbd98d6ca	-0.07462843
141	0xbeed9972	-0.46406132
142	0xbdabeb2e	-0.08394466
143	0xbe87c92b	-0.26520666
144	0xbcb30eea	-0.021857698
145	0x3d99fafa	0.07518573
146	0xbe5bb19f	-0.21454476
147	0x3e9b172f	0.30291125
148	0x3db7c07b	0.089722596
149	0xbf5c6bdc	-0.8610208
150	0x3dbe84a3	0.09302642
151	0xbc6928b3	-0.014230895
152	0xbe018827	-0.12649594
153	0xbdf493e1	-0.11942268
154	0xbe1d8c49	-0.15385546
155	0xbe46c7f1	-0.19412209
156	0x3e42b045	0.19012554
157	0xbc524989	-0.012834915
158	0x3f398d34	0.72481084
159	0xbe203aad	-0.15647383
160	0x3f134dc6	0.5754055
161	0xbef5745b	-0.47940335
162	0xbcee74ae	-0.029108372
163	0xbba056e4	-0.0048931707
164	0x3de83775	0.113387026
165	0x3df45ca2	0.11931731
166	0xbe95165b	-0.29118618
167	0x3e65d986	0.2244626
168	0x3e45116e	0.1924493
169	0xbed27e0b	-0.41111788
170	0xbe55e77b	-0.20889084
171	0x3eac3775	0.3363606
172	0xbeb65591	-0.35612157
173	0x3ebbefa7	0.36706278
174	0xbd6ac7e6	-0.057319544
175	0x3ec203eb	0.37893614
176	0x3c99d15e	0.018776592
177	0xbe8a3f11	-0.2700124
178	0x3eba15e7	0.36344835
179	0xbdb16055	-0.08660952
180	0xbea43a60	-0.32075787
181	0xbe4dbd41	-0.20091726
182	0xbeacb391	-0.33730748
183	0x3e65bf9f	0.22436379
184	0xbf15699c	-0.5836427
185	0xbf59523d	-0.8489111
186	0xbe3f9c61	-0.18711998
187	0xbe3b42e0	-0.1828723
188	0xbe5561b1	-0.20838048
189	0x3cb1e7f3	0.021717047
190	0xbee17253	-0.44032535
191	0x3f643aad	0.8915203
192	0xbf2a638d	-0.6655815
193	0xbd1d8bc7	-0.03846338
194	0xbec98396	-0.39358205
195	0xbe8b1cc5	-0.27170387
196	0xbf85b3a0	-1.0445442
197	0xbf0159c3	-0.5052759
198	0xbf2a2818	-0.6646743
199	0xbe9b2814	-0.30304015
200	0xbea55269	-0.32289436
201	0xbf19b3ba	-0.60039866
202	0xbf218847	-0.6309857
203	0xbf03db01	-0.5150605
204	0xbe803d7b	-0.25046906
205	0xbf4d9654	-0.8030751
206	0xbe12cfc2	-0.14337066
207	0xbf2028ec	-0.6256244
208	0x3dcaf7d9	0.099105544
209	0xbeb471b7	-0.35243008
210	0xbf3803d7	-0.7188086
211	0xbf33fe58	-0.7030997
212	0x3eda24d4	0.42606223
213	0xbf47fd96	-0.78121316
214	0xbe50b52f	-0.20381616
215	0xbea47bfc	-0.32125843
216	0x3ecc2862	0.3987456
217	0xbf556f88	-0.8337331
218	0xbf5cf42d	-0.8631008
219	0xbf13945d	-0.5764826
220	0xbec66bb9	-0.3875406
221	0xbe4ec704	-0.20193106
222	0xbf95aa35	-1.1692568
223	0xbd35e123	-0.04440416
224	0xbfb147f7	-1.3850087
225	0xbf928017	-1.144534
226	0xbe0daa94	-0.13834602
227	0xbe300b87	-0.17191897
228	0x3efc6da2	0.49302393
229	0xbe11b75f	-0.14230107
230	0xbf5045cb	-0.81356496
231	0xbf351690	-0.7073755
232	0xbe4b89f9	-0.19876851
233	0xbf8edd9f	-1.1161383
234	0xbedba119	-0.42896345
235	0x3e8a4e44	0.27012837
236	0xbf8aa704	-1.0832219
237	0xbf9c2997	-1.2200192
238	0x3e2039eb	0.15647094
239	0xbf9da6d0	-1.2316532
240	0x3e8a23c8	0.26980424
241	0xbf2c5860	-0.6732235
242	0xbe2962d4	-0.16541606
243	0xbf0666e6	-0.5250076
244	0xbf34077d	-0.70323926
245	0xbede65dd	-0.4343709
246	0xbf08c0da	-0.5341927
247	0xbea69cf2	-0.32541615
248	0xbf76221c	-0.96145797
249	0xbf2974e0	-0.6619396
250	0x3e779d2e	0.24181053
251	0xbedb8ba2	-0.4287997
252	0xbee80bf6	-0.45321625
253	0xbe05a0d9	-0.1304964
254	0xbfa09050	-1.2544041
255	0xbf30b14d	-0.6902054

lstm.weight_ih_l1 f4 [256, 64]
0	0x3f589726	0.84605634
1	0x3de6be8e	0.11266814
2	0xbe4019e0	-0.1875987
3	0x3eb24c56	0.34823865
4	0x3eac3274	0.33632243
5	0xbd39f6ef	-0.04540151
6	0xbef6fbd9	-0.4823902
7	0x3ea2a2e6	0.31764907
8	0xbebe5002	-0.37170416
9	0x3f841da9	1.0321552
10	0xbef3bf3d	-0.4760684
11	0x3f0d9982	0.5531236
12	0x3f74b1fb	0.95584077
13	0x3f086e06	0.5329288
14	0x3f1b9601	0.6077576
15	0x3ddc0a18	0.10744113
16	0x3ee12e13	0.43980464
17	0xbf9affe7	-1.2109345
18	0x3e6049c1	0.21903135
19	0xbf525984	-0.8216784
20	0x3dc38955	0.095476784
21	0x3e470ba8	0.1943804
22	0xbf33bd35	-0.7021058
23	0xbf02b1c0	-0.51052475
24	0x3c82803e	0.015930291
25	0x3eae398b	0.34028277
26	0x3f32fbaf	0.6991529
27	0x3f3e4ab6	0.7433275
28	0xbf531c47	-0.8246502
29	0x3e121098	0.14264143
30	0xbf0ec74f	-0.5577287
31	0x3e8b1f15	0.2717215
32	0xbe3e0b1c	-0.18558925
33	0x3edca6c4	0.43095982
34	0x3defa1b0	0.11700761
35	0x3dda71ad	0.10666213
36	0x3d676ab9	0.056498263
37	0x3e967290	0.2938428
38	0x3eca20c9	0.39478138
39	0xbea0cdc8	-0.31407
40	0x3e9978ec	0.2997507
41	0xbeb1fdc9	-0.34763935
42	0x3f637900	0.88856506
43	0x3ef26931	0.4734588
44	0x3f3386bf	0.7012748
45	0x3d4abca7	0.04949632
46	0xbe9f3564	-0.3109542
47	0xbd8ce2f6	-0.06879227
48	0x3f3b2b8a	0.7311331
49	0x3f0ae3a6	0.54253614
50	0xbe41d829	-0.18930115
51	0x3f5a73bb	0.8533284
52	0x3ed2af4f	0.41149375
53	0x3e43e10e	0.1912882
54	0x3f8115bd	1.0084759
55	0xbcb00bb1	-0.02148995
56	0xbe74f625	-0.23922022
57	0x3e9ad5fb	0.3024138
58	0x3dcf0ea1	0.10110212
59	0xbda06a29	-0.078327484
60	0x3f331627	0.69955677
61	0xbe87a04f	-0.26489493
62	0x3f24e21e	0.6440753
63	0x3d8a5c31	0.06755865
64	0x3f35acd9	0.7096687
65	0x3ec82f43	0.39098558
66	0xbee6aa22	-0.45051676
67	0x3e7a85a2	0.2446504
68	0xbe5290f7	-0.20563112
69	0xbe0722a2	-0.13196805
70	0xbf2aa8e2	-0.66663945
71	0x3c91aa73	0.017781472
72	0x3e4479fb	0.19187157
73	0x3e0cc78c	0.13747996
74	0xbe369ba0	-0.17832804
75	0x3ef40fa8	0.47668195
76	0x3e2461b7	0.160529
77	0x3f0cd365	0.5501006
78	0x3f18b7e0	0.5965557
79	0x3db40195	0.08789364
80	0x3e6ac82f	0.22927926
81	0xbf2f15ff	-0.6839294
82	0x3d3c0371	0.04590172
83	0xbf01f249	-0.5076032
84	0x3d83fc3e	0.06444596
85	0x3ddce036	0.10784952
86	0xbf4cb12c	-0.7995784
87	0xbe5881cc	-0.21143264
88	0x3beb99d3	0.007189968
89	0x3e333ab3	0.1750286
90	0x3ebcbe9e	0.3686418
91	0x3eaa8cbf	0.33310506
92	0xbeaa51aa	-0.3326543
93	0x3e355ac4	0.17710406
94	0xbd8cc43c	-0.06873366
95	0x3e6be72d	0.23037405
96	0xbe7ff846	-0.24997053
97	0x3cce493d	0.025181407
98	0xbe13e85c	-0.14444107
99	0xbeb6148a	-0.35562545
100	0x3e8b4e36	0.27208108
101	0x3ee2d451	0.4430261
102	0x3f03fe10	0.51559544
103	0xbe95cfa4	-0.2925998
104	0x3e5f5658	0.21810281
105	0x3dea8cc7	0.114526324
106	0x3ea7c748	0.32769227
107	0x3e7501be	0.23926446
108	0x3ebe1210	0.37123156
109	0xbda6089b	-0.0810711
110	0xbed31aed	-0.4123148
111	0xbf00b103	-0.502701
112	0xbeafb3c8	-0.3431685
113	0x3e588608	0.21144879
114	0xbe7fd12d	-0.24982138
115	0x3f1fdcc9	0.62446266
116	0x3ec76718	0.38945842
117	0xbe0a2e5e	-0.1349425
118	0x3f4c8878	0.79895735
119	0x3e8223f8	0.25418067
120	0xbdff39b5	-0.124621786
121	0xbe834ae0	-0.25643063
122	0x3d91a240	0.07111025
123	0xbe945ccd	-0.2897705
124	0x3cd49416	0.02594952
125	0x3e5e1928	0.21689284
126	0x3efa7540	0.4891758
127	0x3eec54c0	0.4615841
128	0x3ee3c6cd	0.4448761
129	0xbf24a69f	-0.64316744
130	0xbd893f54	-0.06701532
131	0x3d36bc45	0.04461314
132	0x3f229308	0.635056
133	0x3b04d20a	0.0020266795
134	0xbf0b6691	-0.5445338
135	0xbea03287	-0.3128855
136	0xbf3d5b6b	-0.7396762
137	0x3edc98a4	0.43085206
138	0x3e10ffb3	0.14160042
139	0x3e51ed1b	0.20500605
140	0xbeb66c8b	-0.35629687
141	0x3ee3af57	0.4446971
142	0x3e08d4e3	0.1336246
143	0x3e1b7f0c	0.15185183
144	0x3edf13bb	0.4356974
145	0x3dfaee4a	0.12252481
146	0x3e46d359	0.1941656
147	0xbe7b33de	-0.24531505
148	0x3ef92c5b	0.48666653
149	0x3f3d893b	0.7403752
150	0xbe5e5e0e	-0.21715567
151	0x3ee24a98	0.44197536
152	0xbee10885	-0.43951812
153	0x3f46e78a	0.7769705
154	0x3ee62a60	0.44954205
155	0x3e845ef1	0.25853685
156	0xbdf10917	-0.11769312
157	0x3efa0770	0.488338
158	0xbfa5a00e	-1.293947
159	0xbe3a2a6a	-0.18180242
160	0xbe602747	-0.21889983
161	0x3ea6a902	0.32550818
162	0x3ef98d3f	0.48740575
163	0x3f2472cb	0.6423766
164	0xbe8dd933	-0.27704772
165	0xbd8f0d42	-0.069849506
166	0x3e2166cc	0.1576187
167	0xbe8931cb	-0.26795802
168	0x3e112149	0.14172854
169	0x3efdce1c	0.4957131
170	0x3d52a1e9	0.05142394
171	0xbe49bb7f	-0.1970043
172	0x3eb4637f	0.3523216
173	0xbe2bc1f8	-0.16773212
174	0x3ea310d0	0.31848764
175	0xbf4c0d53	-0.7970783
176	0x3eb330e1	0.3499823
177	0x3e9a03d0	0.30081034
178	0xbed7db35	-0.4215943
179	0xbe21cbe7	-0.15800439
180	0x3ed4a79a	0.4153412
181	0xbe9443e2	-0.2895804
182	0x3e3c7eb1	0.18407704
183	0xbf7d5c8c	-0.9896934
184	0x3f50c2b5	0.815471
185	0x3e6d0e9b	0.23150103
186	0xbd8e432e	-0.06946407
187	0x3f0b5ed2	0.5444156
188	0x3e1d3fe9	0.15356411
189	0x3f1f0c86	0.62128484
190	0x3f764fd5	0.96215564
191	0xbfb66560	-1.4249687
192	0xbdc1bf9c	-0.09460375
193	0x3ee00631	0.43754724
194	0x3f0e5858	0.5560355
195	0x3e764019	0.24047889
196	0x3f12bad8	0.5731635
197	0xbd984115	-0.074342884
198	0x3e147098	0.14496076
199	0x3e97b8f5	0.296333
200	0xbe72ea17	-0.2372211
201	0x3e141a94	0.14463264
202	0xbf2d5d75	-0.6772073
203	0xbf92fe06	-1.1483772
204	0xbd3f79f2	-0.046747155
205	0x3ef93a35	0.4867722
206	0xbe13e7a8	-0.14443839
207	0x3fb2fff9	1.3984367
208	0xbea8aded	-0.32945195
209	0xbe8cd070	-0.27502775
210	0x3bf9a34e	0.0076183444
211	0xbf20f2a3	-0.62870234
212	0xbd78c534	-0.060734943
213	0xbbd66a4c	-0.0065434333
214	0x3d8e717d	0.0695524
215	0xbe7271d4	-0.23676234
216	0xbcdd82ab	-0.027039846
217	0xbeba2eab	-0.3636373
218	0x3e686af0	0.22697043
219	0x3ec209f3	0.37898216
220	0xbed7b414	-0.42129576
221	0xbd805a1c	-0.06267187
222	0xbe7cc098	-0.24682844
223	0x3be7a427	0.007069129
224	0xbf12d9f0	-0.57363796
225	0x3de8713f	0.11349725
226	0x3eb7f2df	0.35927483
227	0xbe90184d	-0.2814354
228	0x3e9744a7	0.29544565
229	0xbe566bc7	-0.20939551
230	0x3e1c4b79	0.15263166
231	0x3e9ffdaa	0.31248218
232	0xbdea0bb9	-0.11428017
233	0x3ba63248	0.005071912
234	0x3e227a7d	0.15867038
235	0x3ea64d4f	0.32480857
236	0x3ef771cf	0.48329017
237	0xbdc3206b	-0.095276676
238	0xbf8bc14a	-1.0918362
239	0xbf30883d	-0.68957883
240	0xbe590f20	-0.21197176
241	0xbd4678ae	-0.048454933
242	0x3e078649	0.1323482
243	0x3e938a41	0.28816417
244	0x3ec7500a	0.38928252
245	0x3e33606f	0.17517255
246	0xbe24ced9	-0.16094531
247	0xbdccf7c9	-0.10008199
248	0x3f1bc751	0.6085101
249	0x3d98b584	0.07456496
250	0xbcf45293	-0.02982453
251	0xbebeba5c	-0.37251556
252	0x3e22a1c5	0.15882023
253	0x3e9030eb	0.2816232
254	0x3dbc4cff	0.09194373
255	0x3f915647	1.1354455

lstm.weight_hh_l1 f4 [256, 64]
0	0x3e42a93d	0.19009872
1	0x3ef4b7a9	0.47796372
2	0xbe2bebfb	-0.16789238
3	0xbd6e0af3	-0.05811591
4	0xbe03df2e	-0.12878105
5	0x3e5336da	0.20626393
6	0x3da274e1	0.07932449
7	0xbed00282	-0.40626913
8	0xbc8148a6	-0.015781712
9	0x3e5c2b6f	0.21500944
10	0x3e5ccd53	0.215627
11	0xbdd40319	-0.10352153
12	0x3ec183ea	0.37795955
13	0xbf06760d	-0.5252388
14	0xbec71eb1	-0.38890603
15	0x3e53c664	0.20681149
16	0x3d1755dd	0.03694712
17	0x3db11072	0.08645715
18	0x3f29c180	0.6631088
19	0x3dc90a7f	0.09816455
20	0xbe54672b	-0.2074248
21	0xbcc5d61b	-0.024149945
22	0xbd85ed80	-0.0653944
23	0xbe4426aa	-0.19155374
24	0x3e8da499	0.2766464
25	0xbe9fa82c	-0.31182992
26	0x3eb8171d	0.35955134
27	0x3f0c702c	0.5485866
28	0xbd2d3e06	-0.04229548
29	0x3e320bcf	0.17387317
30	0xbee64a3b	-0.44978508
31	0x3efb939b	0.49136052
32	0x3f015857	0.5052542
33	0x3e31bfae	0.17358276
34	0xbf06b297	-0.52616256
35	0x3d5d2ed9	0.053999756
36	0xbe8644e9	-0.2622445
37	0xbe1980ed	-0.14990588
38	0xbee4a85c	-0.44659698
39	0xbec04658	-0.37553668
40	0xbea5b900	-0.32367706
41	0x3e39e085	0.18152054
42	0xbed798ad	-0.4210867
43	0xbe28f807	-0.16500865
44	0x3dffbbc0	0.12486982
45	0xbe49cd03	-0.19707112
46	0xbf7510b7	-0.9572863
47	0xbf2ac0e5	-0.66700584
48	0xbec31535	-0.38102117
49	0x3e5a7756	0.21334586
50	0xbf166882	-0.58753216
51	0x3f2b5798	0.6693053
52	0xbf149ebb	-0.58054703
53	0x3edb39f4	0.42817652
54	0x3f17ed5a	0.59346545
55	0x3edd8a9e	0.4326982
56	0xbea460f2	-0.32105213
57	0xbe289036	-0.16461262
58	0x3f0ed494	0.5579312
59	0xbde9ab34	-0.114096075
60	0x3d9c80ea	0.07641776
61	0x3e269660	0.16268301
62	0xbdca6559	-0.09882612
63	0x3ea9d357	0.33169052
64	0x3e1445bf	0.14479731
65	0x3f50496c	0.8136203
66	0x3eaf4dec	0.34239137
67	0x3f06e69b	0.52695626
68	0xbe82c3a8	-0.255399
69	0xbf318df7	-0.69357246
70	0xbddde2f9	-0.10834307
71	0x3e089635	0.1333855
72	0xbed6d79f	-0.4196138
73	0x3e15ffb7	0.14648329
74	0x3e8b8e38	0.27256942
75	0xbea6d554	-0.3258463
76	0x3d9ba0a7	0.075990014
77	0xbf47089e	-0.77747524
78	0x3df94ed5	0.12173239
79	0x3f3409dd	0.7032755
80	0x3f329e71	0.6977301
81	0x3f05268d	0.5201195
82	0xbe39b394	-0.1813491
83	0x3eb6ea23	0.35725507
84	0xbed178ce	-0.4091248
85	0xbd82640e	-0.0636674
86	0xbf214727	-0.62999195
87	0xbf1a785c	-0.60339904
88	0x3f2234ed	0.6336201
89	0x3e986aba	0.29768926
90	0x3edec362	0.4350844
91	0xbdfe8c48	-0.124291
92	0x3d901e4a	0.07037027
93	0x3f2581b3	0.6465103
94	0x3eb1037c	0.3457297
95	0x3e86a50b	0.26297793
96	0x3eef0941	0.46686748
97	0x3ea37c4c	0.31930768
98	0xbe171c57	-0.14756905
99	0x3d1e40ca	0.038636006
100	0xbe52ba85	-0.20578964
101	0x3f161d60	0.5863857
102	0xbec21cbe	-0.37912554
103	0x3e9de63e	0.30839723
104	0xbe05073a	-0.12991038
105	0xbd803165	-0.06259421
106	0xbf1f0083	-0.62110156
107	0x3eacc4f1	0.33744004
108	0x3ea036fe	0.31291956
109	0xbeb23b51	-0.3481088
110	0x3e21fedb	0.15819876
111	0xbe96e31a	-0.2947014
112	0x3e44e497	0.19227825
113	0x3e866a5d	0.26253024
114	0xbb16e9cb	-0.0023027535
115	0x3e68c618	0.22731817
116	0x3ecef895	0.40424028
117	0xbe9810a7	-0.29700205
118	0xbdc1d418	-0.09464282
119	0x3f2e41a4	0.6806891
120	0xbf08caee	-0.53434646
121	0x3b555c24	0.003255614
122	0xbdc4fa7d	-0.09618089
123	0xbf068418	-0.5254531
124	0x3e8af568	0.27140355
125	0x3f1fa8bb	0.6236684
126	0x3e89de3d	0.26927367
127	0xbeee0562	-0.46488482
128	0xbd74c254	-0.05975564
129	0xbe659374	-0.2241953
130	0x3dd95050	0.106110215
131	0x3d34edd8	0.044172138
132	0x3ee52895	0.44757524
133	0x3ef241f3	0.4731594
134	0x3f21bcd3	0.6317875
135	0x3d89d2c7	0.06729656
136	0x3f13a1e2	0.5766889
137	0xbcd2eeb5	-0.02574859
138	0xbefbb5e9	-0.49162224
139	0x3f28dc8a	0.65961516
140	0xbc1b61f2	-0.009483801
141	0xbe17d49d	-0.148272
142	0xbea85857	-0.32879898
143	0xbf27f67c	-0.6561048
144	0xbf1e86c5	-0.6192439
145	0xbef9f06e	-0.48816246
146	0x3eb1d62b	0.3473371
147	0xbea5a3ac	-0.32351434
148	0x3f318fea	0.6936022
149	0xbeaf20f9	-0.34204844
150	0x3f023841	0.50867087
151	0x3e5c002c	0.2148444
152	0xbea04d09	-0.31308773
153	0xbd8050f3	-0.0626544
154	0xbe0c0df0	-0.13677192
155	0xbdc73d63	-0.097285055
156	0x3e410536	0.18849644
157	0xbee6abf1	-0.45053056
158	0x3d09a0fe	0.0336008
159	0x3c1ad8c3	0.009451094
160	0x3dd0c348	0.10193497
161	0x3d9e2338	0.07721561
162	0xbeb82b83	-0.35970697
163	0xbe02d6b2	-0.12777212
164	0x3e80fde3	0.251937
165	0x3e4bcb9d	0.19901891
166	0x3d27837b	0.040896874
167	0xbe1b35ca	-0.15157238
168	0x3e28e3e1	0.16493179
169	0x3e9be072	0.30444676
170	0x3eca9867	0.395694
171	0x3dc39add	0.09551022
172	0xbe7c861e	-0.24660537
173	0x3e1f84bd	0.1557798
174	0xbf01b6c6	-0.50669515
175	0x3db7d681	0.0897646
176	0x3e5b6f7a	0.21429244
177	0xbdf673bd	-0.12033794
178	0xbee7a493	-0.45242748
179	0xbc3707d0	-0.011171296
180	0xbdf70085	-0.12060646
181	0x3e9be76a	0.30449992
182	0x3d3e9c88	0.046536
183	0xbe2a5647	-0.16634475
184	0x3dd174fa	0.1022739
185	0x3d0bb34d	0.03410654
186	0xbd753dc4	-0.059873357
187	0x3e1a9ba1	0.1509843
188	0xbef6b609	-0.48185757
189	0xbe96859b	-0.29398808
190	0xbf23d345	-0.63994247
191	0x3d7f6e86	0.062361263
192	0x3e535a68	0.20639956
193	0x3e8c3b9e	0.27389234
194	0xbedd8b54	-0.4327036
195	0x3f418c7b	0.7560498
196	0x3d73e72e	0.059546642
197	0x3e9b5474	0.3033787
198	0x3e4d3478	0.20039546
199	0xbec80386	-0.39065188
200	0x3d7d1bbb	0.061794024
201	0x3ec0751f	0.37589356
202	0xbe880d21	-0.26572517
203	0x3e511da9	0.2042147
204	0x3eb37ef7	0.35057804
205	0xbd988e86	-0.07449059
206	0xbf24b3e9	-0.6433702
207	0x3e06adf6	0.13152298
208	0x3e052ab0	0.13004565
209	0xbe0897b1	-0.13339116
210	0x3f208a06	0.6271061
211	0xbd27807c	-0.040894017
212	0x3dcd30e7	0.10019093
213	0x3ebd518e	0.36976284
214	0xbea15722	-0.3151179
215	0xbec908b7	-0.3926446
216	0x3ee110ec	0.43958223
217	0xbeb29368	-0.34878087
218	0x3edbc1de	0.42921346
219	0x3ea3fb3b	0.3202761
220	0xbd9c51d2	-0.076327935
221	0xbd52e761	-0.05149019
222	0xbed1ea69	-0.40999153
223	0x3e9aad52	0.30210358
224	0x3f210b1f	0.62907594
225	0x3f644409	0.89166313
226	0xbc6a95ca	-0.014317939
227	0xbe9555ae	-0.2916693
228	0xbf4dcce4	-0.80390763
229	0xbf2a834c	-0.66606593
230	0xbf187c96	-0.59565103
231	0xbe0fbc28	-0.1403662
232	0xbe6cdfc1	-0.2313223
233	0x3ee2cec3	0.44298372
234	0xbe5ec574	-0.2175501
235	0x3e40ac44	0.18815714
236	0x3da42b2e	0.08016048
237	0xbef13081	-0.47107318
238	0xbef9b725	-0.4877254
239	0xbf121294	-0.570596
240	0xbebb2e04	-0.36558545
241	0x3f175544	0.5911448
242	0x3e645088	0.22296345
243	0x3e9088e4	0.2822944
244	0xbeafd8b0	-0.34345007
245	0x3ea16988	0.31525826
246	0x3e8bf9d0	0.2733903
247	0x3e528f75	0.20562537
248	0xbe5e8f20	-0.21734285
249	0xbe162900	-0.14664078
250	0x3ebbc000	0.36669922
251	0xbe1bb559	-0.15205897
252	0x3db191e4	0.086704046
253	0x3e9ee7de	0.31036276
254	0xbe3ef2e8	-0.18647349
255	0x3f0bdb34	0.5463135
